…
  is_hyperparam: null
  is_meta: null
  name: loss_func
  options:
  - _loss_func
  order: 29
  type: CrossEntropyLoss
  value: null
mem_len:
  computed: 256
  is_explicitly_specified: true
  is_hyperparam: null
  is_meta: null
  name: mem_len
  options: []
  order: 28
  type: <class 'int'>
  value: 256
mode:
  computed: labml_helpers.train_valid.ModeState
  is_explicitly_specified: false
  is_hyperparam: null
  is_meta: null
  name: mode
  options:
  - from_type
  order: 8
  type: <class 'labml_helpers.train_valid.ModeState'>
  value: null
model:
  computed: "TransformerXLModel(\n  (src_embed): Embedding(1097, 512)\n  (transformer):\
    \ TransformerXL(\n    (layers): ModuleList(\n      (0): TransformerXLLayer(\n\
    \        (self_attn): RelativeMultiHeadAttention(\n          (query): PrepareForMultiHeadAttention(\n\
    \            (linear): Linear(in_features=512, out_features=512, bias=False)\n\
    \          )\n          (key): PrepareForMultiHeadAttention(\n            (linear):\
    \ Linear(in_features=512, out_features=512, bias=False)\n          )\n       \
    \   (value): PrepareForMultiHeadAttention(\n            (linear): Linear(in_features=512,\
    \ out_features=512, bias=True)\n          )\n          (softmax): Softmax(dim=1)\n\
    \          (output): Linear(in_features=512, out_features=512, bias=True)\n  \
    \        (dropout): Dropout(p=0.2, inplace=False)\n        )\n        (feed_forward):\
    \ FeedForward(\n          (layer1): Linear(in_features=512, out_features=2048,\
    \ bias=True)\n          (layer2): Linear(in_features=2048, out_features=512, bias=True)\n\
    \          (dropout): Dropout(p=0.2, inplace=False)\n          (activation): ReLU()\n\
    \        )\n        (dropout): Dropout(p=0.2, inplace=False)\n        (norm_self_attn):\
    \ LayerNorm((512,), eps=1e-05, elementwise_affine=True)\n        (norm_ff): LayerNorm((512,),\
    \ eps=1e-05, elementwise_affine=True)\n      )\n      (1): TransformerXLLayer(\n\
    \        (self_attn): RelativeMultiHeadAttention(\n          (query): PrepareForMultiHeadAttention(\n\
    \            (linear): Linear(in_features=512, out_features=512, bias=False)\n\
    \          )\n          (key): PrepareForMultiHeadAttention(\n            (linear):\
    \ Linear(in_features=512, out_features=512, bias=False)\n          )\n       \
    \   (value): PrepareForMultiHeadAttention(\n            (linear): Linear(in_features=512,\
    \ out_features=512, bias=True)\n          )\n          (softmax): Softmax(dim=1)\n\
    \          (output): Linear(in_features=512, out_features=512, bias=True)\n  \
    \        (dropout): Dropout(p=0.2, inplace=False)\n        )\n        (feed_forward):\
    \ FeedForward(\n          (layer1): Linear(in_features=512, out_features=2048,\
    \ bias=True)\n          (layer2): Linear(in_features=2048, out_features=512, bias=True)\n\
    \          (dropout): Dropout(p=0.2, inplace=False)\n          (activation): ReLU()\n\
    \        )\n        (dropout): Dropout(p=0.2, inplace=False)\n        (norm_self_attn):\
    \ LayerNorm((512,), eps=1e-05, elementwise_affine=True)\n        (norm_ff): LayerNorm((512,),\
    \ eps=1e-05, elementwise_affine=True)\n      )\n      (2): TransformerXLLayer(\n\
    \        (self_attn): RelativeMultiHeadAttention(\n          (query): PrepareForMultiHeadAttention(\n\
    \            (linear): Linear(in_features=512, out_features=512, bias=False)\n\
    \          )\n          (key): PrepareForMultiHeadAttention(\n            (linear):\
    \ Linear(in_features=512, out_features=512, bias=False)\n          )\n       \
    \   (value): PrepareForMultiHeadAttention(\n            (linear): Linear(in_features=512,\
    \ out_features=512, bias=True)\n          )\n          (softmax): Softmax(dim=1)\n\
    \          (output): Linear(in_features=512, out_features=512, bias=True)\n  \
    \        (dropout): Dropout(p=0.2, inplace=False)\n        )\n        (feed_forward):\
    \ FeedForward(\n          (layer1): Linear(in_features=512, out_features=2048,\
    \ bias=True)\n          (layer2): Linear(in_features=2048, out_features=512, bias=True)\n\
    \          (dropout): Dropout(p=0.2, inplace=False)\n          (activation): ReLU()\n\
    \        )\n        (dropout): Dropout(p=0.2, inplace=False)\n        (norm_self_attn):\
    \ LayerNorm((512,), eps=1e-05, elementwise_affine=True)\n        (norm_ff): LayerNorm((512,),\
    \ eps=1e-05, elementwise_affine=True)\n      )\n      (3): TransformerXLLayer(\n\
    \        (self_attn): RelativeMultiHeadAttention(\n          (query): PrepareForMultiHeadAttention(\n\
    \            (linear): Linear(in_features=512, out_features=512, bias=False)\n\
    \          )\n          (key): PrepareForMultiHeadAttention(\n            (linear):\
    \ Linear(in_features=512, out_features=512, bias=False)\n          )\n       \
    \   (value): PrepareForMultiHeadAttention(\n            (linear): Linear(in_features=512,\
    \ out_features=512, bias=True)\n          )\n          (softmax): Softmax(dim=1)\n\
    \          (output): Linear(in_features=512, out_features=512, bias=True)\n  \
    \        (dropout): Dropout(p=0.2, inplace=False)\n        )\n        (feed_forward):\
    \ FeedForward(\n          (layer1): Linear(in_features=512, out_features=2048,\
    \ bias=True)\n          (layer2): Linear(in_features=2048, out_features=512, bias=True)\n\
    \          (dropout): Dropout(p=0.2, inplace=False)\n          (activation): ReLU()\n\
    \        )\n        (dropout): Dropout(p=0.2, inplace=False)\n        (norm_self_attn):\
    \ LayerNorm((512,), eps=1e-05, elementwise_affine=True)\n        (norm_ff): LayerNorm((512,),\
    \ eps=1e-05, elementwise_affine=True)\n      )\n      (4): TransformerXLLayer(\n\
    \        (self_attn): RelativeMultiHeadAttention(\n          (query): PrepareForMultiHeadAttention(\n\
    \            (linear): Linear(in_features=512, out_features=512, bias=False)\n\
    \          )\n          (key): PrepareForMultiHeadAttention(\n            (linear):\
    \ Linear(in_features=5 [[...]]"
  is_explicitly_specified: true
  is_hyperparam: null
  is_meta: null
  name: model
  options:
  - lstm_model
  - rhn_model
  - transformer_model
  - transformer_xl_model
  order: 0
  type: <class 'labml_helpers.module.Module'>
…
